…
# Get the model
model = build_model()
model.summary()
Model: "ocr_model_v1"
__________________________________________________________________________________________________
Layer (type)                    Output Shape         Param #     Connected to                     
==================================================================================================
image (InputLayer)              [(None, 200, 50, 1)] 0                                            
__________________________________________________________________________________________________
Conv1 (Conv2D)                  (None, 200, 50, 32)  320         image[0][0]                      
__________________________________________________________________________________________________
pool1 (MaxPooling2D)            (None, 100, 25, 32)  0           Conv1[0][0]                      
__________________________________________________________________________________________________
Conv2 (Conv2D)                  (None, 100, 25, 64)  18496       pool1[0][0]                      
__________________________________________________________________________________________________
pool2 (MaxPooling2D)            (None, 50, 12, 64)   0           Conv2[0][0]                      
__________________________________________________________________________________________________
reshape (Reshape)               (None, 50, 768)      0           pool2[0][0]                      
__________________________________________________________________________________________________
dense1 (Dense)                  (None, 50, 64)       49216       reshape[0][0]                    
__________________________________________________________________________________________________
dropout (Dropout)               (None, 50, 64)       0           dense1[0][0]                     
__________________________________________________________________________________________________
bidirectional (Bidirectional)   (None, 50, 256)      197632      dropout[0][0]                    
__________________________________________________________________________________________________
bidirectional_1 (Bidirectional) (None, 50, 128)      164352      bidirectional[0][0]              
__________________________________________________________________________________________________
label (InputLayer)              [(None, None)]       0                                            
__________________________________________________________________________________________________
dense2 (Dense)                  (None, 50, 20)       2580        bidirectional_1[0][0]            
__________________________________________________________________________________________________
ctc_loss (CTCLayer)             (None, 50, 20)       0           label[0][0]                      
                                                                 dense2[0][0]                     
==================================================================================================
Total params: 432,596
Trainable params: 432,596
Non-trainable params: 0
__________________________________________________________________________________________________
…
        img = (batch_images[i, :, :, 0] * 255).numpy().astype(np.uint8)
        img = img.T
        title = f"Prediction: {pred_texts[i]}"
        ax[i // 4, i % 4].imshow(img, cmap="gray")
        ax[i // 4, i % 4].set_title(title)
        ax[i // 4, i % 4].axis("off")
plt.show()
Model: "functional_1"
_________________________________________________________________
Layer (type)                 Output Shape              Param #   
=================================================================
image (InputLayer)           [(None, 200, 50, 1)]      0         
_________________________________________________________________
Conv1 (Conv2D)               (None, 200, 50, 32)       320       
_________________________________________________________________
pool1 (MaxPooling2D)         (None, 100, 25, 32)       0         
_________________________________________________________________
Conv2 (Conv2D)               (None, 100, 25, 64)       18496     
_________________________________________________________________
pool2 (MaxPooling2D)         (None, 50, 12, 64)        0         
_________________________________________________________________
reshape (Reshape)            (None, 50, 768)           0         
_________________________________________________________________
dense1 (Dense)               (None, 50, 64)            49216     
_________________________________________________________________
dropout (Dropout)            (None, 50, 64)            0         
_________________________________________________________________
bidirectional (Bidirectional (None, 50, 256)           197632    
_________________________________________________________________
bidirectional_1 (Bidirection (None, 50, 128)           164352    
_________________________________________________________________
dense2 (Dense)               (None, 50, 20)            2580      
=================================================================
Total params: 432,596
Trainable params: 432,596
Non-trainable params: 0
_________________________________________________________________
WARNING:tensorflow:From /usr/local/lib/python3.6/dist-packages/tensorflow/python/util/dispatch.py:201: sparse_to_dense (from tensorflow.python.ops.sparse_ops) is deprecated and will be removed in a future version.
…
